{"class_name": "GradModel2", "config": {"name": "Autoencoder", "layers": [{"class_name": "InputLayer", "config": {"batch_input_shape": [null, 52], "dtype": "float64", "sparse": false, "ragged": false, "name": "input_1"}, "name": "input_1", "inbound_nodes": [], "shared_object_id": 0}, {"class_name": "Functional", "config": {"name": "Encoder", "layers": [{"class_name": "InputLayer", "config": {"batch_input_shape": [null, 52], "dtype": "float64", "sparse": false, "ragged": false, "name": "input_1"}, "name": "input_1", "inbound_nodes": [], "shared_object_id": 0}, {"class_name": "Dense", "config": {"name": "dense", "trainable": true, "dtype": "float64", "units": 39, "activation": "linear", "use_bias": true, "kernel_initializer": {"class_name": "HeNormal", "config": {"seed": null}}, "bias_initializer": {"class_name": "Zeros", "config": {}}, "kernel_regularizer": null, "bias_regularizer": null, "activity_regularizer": null, "kernel_constraint": null, "bias_constraint": null}, "name": "dense", "inbound_nodes": [[["input_1", 0, 0, {}]]]}, {"class_name": "LeakyReLU", "config": {"name": "leaky_re_lu", "trainable": true, "dtype": "float64", "alpha": 0.3}, "name": "leaky_re_lu", "inbound_nodes": [[["dense", 0, 0, {}]]]}, {"class_name": "Dense", "config": {"name": "dense_1", "trainable": true, "dtype": "float64", "units": 26, "activation": "linear", "use_bias": true, "kernel_initializer": {"class_name": "HeNormal", "config": {"seed": null}}, "bias_initializer": {"class_name": "Zeros", "config": {}}, "kernel_regularizer": null, "bias_regularizer": null, "activity_regularizer": null, "kernel_constraint": null, "bias_constraint": null}, "name": "dense_1", "inbound_nodes": [[["leaky_re_lu", 0, 0, {}]]]}, {"class_name": "LeakyReLU", "config": {"name": "leaky_re_lu_1", "trainable": true, "dtype": "float64", "alpha": 0.3}, "name": "leaky_re_lu_1", "inbound_nodes": [[["dense_1", 0, 0, {}]]]}, {"class_name": "Dense", "config": {"name": "dense_2", "trainable": true, "dtype": "float64", "units": 13, "activation": "linear", "use_bias": true, "kernel_initializer": {"class_name": "HeNormal", "config": {"seed": null}}, "bias_initializer": {"class_name": "Zeros", "config": {}}, "kernel_regularizer": null, "bias_regularizer": null, "activity_regularizer": null, "kernel_constraint": null, "bias_constraint": null}, "name": "dense_2", "inbound_nodes": [[["leaky_re_lu_1", 0, 0, {}]]]}, {"class_name": "LeakyReLU", "config": {"name": "leaky_re_lu_2", "trainable": true, "dtype": "float64", "alpha": 0.3}, "name": "leaky_re_lu_2", "inbound_nodes": [[["dense_2", 0, 0, {}]]]}], "input_layers": [["input_1", 0, 0]], "output_layers": [["leaky_re_lu_2", 0, 0]]}, "name": "Encoder", "inbound_nodes": [[["input_1", 0, 0, {}]]]}, {"class_name": "Functional", "config": {"name": "Decoder", "layers": [{"class_name": "InputLayer", "config": {"batch_input_shape": [null, 13], "dtype": "float64", "sparse": false, "ragged": false, "name": "input_2"}, "name": "input_2", "inbound_nodes": []}, {"class_name": "Dense", "config": {"name": "dense_4", "trainable": true, "dtype": "float64", "units": 39, "activation": "linear", "use_bias": true, "kernel_initializer": {"class_name": "HeNormal", "config": {"seed": null}}, "bias_initializer": {"class_name": "Zeros", "config": {}}, "kernel_regularizer": null, "bias_regularizer": null, "activity_regularizer": null, "kernel_constraint": null, "bias_constraint": null}, "name": "dense_4", "inbound_nodes": [[["input_2", 0, 0, {}]]]}, {"class_name": "LeakyReLU", "config": {"name": "leaky_re_lu_4", "trainable": true, "dtype": "float64", "alpha": 0.3}, "name": "leaky_re_lu_4", "inbound_nodes": [[["dense_4", 0, 0, {}]]]}, {"class_name": "Dense", "config": {"name": "dense_5", "trainable": true, "dtype": "float64", "units": 52, "activation": "linear", "use_bias": true, "kernel_initializer": {"class_name": "HeNormal", "config": {"seed": null}}, "bias_initializer": {"class_name": "Zeros", "config": {}}, "kernel_regularizer": null, "bias_regularizer": null, "activity_regularizer": null, "kernel_constraint": null, "bias_constraint": null}, "name": "dense_5", "inbound_nodes": [[["leaky_re_lu_4", 0, 0, {}]]]}], "input_layers": [["input_2", 0, 0]], "output_layers": [["dense_5", 0, 0]]}, "name": "Decoder", "inbound_nodes": [[["Encoder", 1, 0, {}]]]}], "input_layers": [["input_1", 0, 0]], "output_layers": [["Decoder", 1, 0]]}, "keras_version": "2.11.0", "backend": "tensorflow"}